Term project/codes/netInitModels/SCCNet_0.pth (torch, 74613 bytes, 10 tensors)

conv1.0.weight f4 [22, 1, 22, 1]
-0.11557028 0.14631891 0.13820362 0.10594189 0.20598301 0.18704376 0.13945031 0.09634903
0.06274748 -0.099291675 -0.19224729 0.105125606 0.1501019 -0.17707026 0.13603911 0.087335885
0.06888789 -0.07387611 -0.03896591 -0.105227515 0.085467815 0.05820328 0.023526654 -0.14455569
-0.16049744 0.1392819 -0.14909348 -0.12522075 -0.034245774 -0.06369251 -0.015288115 0.103125304
0.10361099 0.016829133 0.17974126 0.028537393 0.15527147 -0.19158734 -0.12233472 -0.13048851
-0.054893866 0.17696601 -0.0012233704 -0.2091745 -0.04182294 -0.12780762 0.0737108 0.20627892
0.1521559 -0.04359588 0.145129 0.17270377 -0.19909371 0.16992402 0.09382585 0.046561956
-0.025610521 -0.2128707 0.11395088 0.048127323 -0.13608831 -0.04377702 -0.1080327 0.0016413033
0.029080167 -0.032029614 0.16815782 0.04430455 -0.1332735 -0.18219982 -0.12069216 -0.06969173
0.14224252 -0.1605775 -0.14547446 -0.022523329 0.010754168 -0.08264436 -0.18742909 -0.17070068
-0.09550245 -0.19898656 -0.08955288 0.15498653 0.08376014 -0.14118865 0.17929387 0.13555741
0.17138848 0.09971541 -0.13532889 0.118002266 0.13805956 0.2077758 0.053287864 -0.12751216
-0.024468303 -0.19456312 -0.17643058 0.013392225 -0.042847767 -0.062454924 -0.20135094 -0.1910464
0.13532993 -0.20852897 0.019881532 -0.10565388 -0.20109275 0.14136878 -0.10671564 -0.0941217
0.14322856 -0.10055985 0.017060593 0.0900563 -0.00050491095 -0.10521048 -0.018205479 0.14604563
-0.07360041 0.09733981 0.033680603 0.19009039 0.083869874 -0.07702154 -0.03751877 -0.0025074184
0.14360666 -0.047834173 -0.19795172 -0.20554246 0.13466135 -0.11262841 -0.11708682 -0.20376742
-0.13941704 0.1417405 -0.13261381 -0.19327435 0.16436544 0.13583982 -0.029212072 0.058472604
0.08551946 -0.18481287 -0.07517828 -0.024050131 0.1777575 -0.036966756 -0.12591541 0.09778866
0.032376304 0.12751418 0.07349777 -0.1464839 -0.13643661 -0.12187345 -0.043356776 -0.022845969
0.191275 0.17643034 -0.17519873 0.01064226 -0.20616451 -0.1947087 -0.03815511 -0.12271465
0.13382977 -0.09958014 0.09835073 -0.015759215 0.2025547 0.026687786 -0.21243185 -0.20124508
-0.00034460425 0.02147147 0.12823296 -0.015548691 0.16890389 0.13388366 -0.1319173 -0.13717428
0.17830494 0.07204422 0.19477195 0.005923182 0.08360824 0.16834927 0.122309715 -0.16832432
-0.1445897 -0.19183543 0.010323659 -0.0007480085 -0.04065767 -0.013076201 0.15917632 -0.078498304
-0.073396295 -0.083658904 0.013863906 0.13784167 -0.018018097 -0.11607719 0.026858643 0.06716764
-0.092045054 -0.018975675 0.11170742 0.036762714 -0.21074127 0.2110486 0.14757752 0.08234197
0.14312515 -0.076232895 0.09357718 -0.20044732 0.10811803 0.19123161 -0.08664502 -0.06188056
0.17004299 0.102238715 -0.08491552 -0.008372784 0.04682547 0.1589486 0.16366223 0.04401633
-0.06260663 -0.08024196 -0.16622297 -0.14955768 0.06518486 -0.174148 0.047507852 0.10268211
-0.19610533 0.029060751 -0.053959504 0.07175115 0.12636372 -0.02861321 -0.19855767 0.13903767
-0.041024715 0.02212821 0.023052067 -0.15922779 -0.15014479 -0.05345851 -0.18070376 -0.102322854
00000000: 1cb0 ecbd a0d4 153e 4085 0d3e 10f8 d83d
00000010: 36ed 523e 6688 3f3e 10cc 0e3e a452 c53d
00000020: c081 803d 6f59 cbbd 79dc 44be 184c d73d
00000030: 50b4 193e e851 35be d64d 0b3e 28dd b23d
00000040: 1815 8d3d 5c4c 97bd b89a 1fbd 8681 d7bd
00000050: c009 af3d 9066 6e3d f8ba c03c 6806 14be
00000060: 7159 24be ea9f 0e3e f6ab 18be de39 00be
00000070: 4c45 0cbd 3871 82bd 007b 7abc 5c33 d33d
00000080: 0032 d43d 40dd 893c 180e 383e 40c7 e93c
00000090: 7cff 1e3e 792f 44be a08a fabd c89e 05be
000000a0: 64d8 60bd 9436 353e 8059 a0ba d731 56be
000000b0: 884e 2bbd 00e0 02be b0f5 963d c83a 533e
000000c0: c2ce 1b3e 9891 32bd b29c 143e 42d9 303e
000000d0: 39df 4bbe 9000 2e3e c427 c03d c0b7 3e3d
000000e0: 28cd d1bc c7fa 59be 145f e93d 2821 453d
000000f0: bc5a 0bbe 884f 33bd 4040 ddbd 0021 d73a
00000100: 8839 ee3c 7c31 03bd 9031 2c3e b078 353d
00000110: d978 08be 9792 3abe 742d f7bd 8aba 8ebd
00000120: 06a8 113e 6e6e 24be 42f7 14be d882 b8bc
00000130: 4032 303c 7241 a9bd 69ed 3fbe 29cc 2ebe
00000140: ca96 c3bd 22c3 4bbe 8067 b7bd cab4 1e3e
00000150: 708a ab3d c293 10be d098 373e 90cf 0a3e
00000160: 7680 2f3e 9837 cc3d a893 0abe 2cab f13d
00000170: 7c5f 0d3e 2ec3 543e 6044 5a3d 8c92 02be
00000180: c071 c8bc 8e3b 47be 38aa 34be 106b 5b3c
00000190: 2481 2fbd bcd0 7fbd f12e 4ebe aba1 43be
000001a0: ee93 0a3e 9e88 55be 98de a23c 1061 d8bd
000001b0: 42eb 4dbe fac2 103e bb8d dabd e1c2 c0bd
000001c0: 82aa 123e 53f2 cdbd a8c2 8b3c 706f b83d
000001d0: 005c 04ba 9878 d7bd a823 95bc fc8c 153e
000001e0: d0bb 96bd 185a c73d acf4 093d 0ea7 423e
000001f0: f8c3 ab3d 78bd 9dbd 48ad 19bd 8053 24bb
00000200: a00d 133e c4ed 43bd dbb3 4abe b979 52be
00000210: aae4 093e b9a9 e6bd 37cb efbd 68a8 50be
00000220: 57c3 0ebe 6c24 113e eacb 07be b6e9 45be
00000230: 6a4f 283e 9819 0b3e 284e efbc f880 6f3d
00000240: d424 af3d 963f 3dbe 12f7 99bd c804 c5bc
00000250: 1006 363e 746a 17bd f8ef 00be 6c45 c83d
00000260: 049d 043d 1493 023e 0086 963d e0ff 15be
00000270: 0ab6 0bbe ca98 f9bd e096 31bd 7827 bbbc
00000280: 98dd 433e 28aa 343e 4c67 33be e05c 2e3c
00000290: ca1c 53be b861 47be 8848 1cbd d251 fbbd
000002a0: ac0a 093e acf0 cbbd 1c6c c93d 7819 81bc
000002b0: 806a 4f3e 58a0 da3c bc87 59be 3113 4ebe
000002c0: 00ac b4b9 f0e4 af3c 804f 033e f0bf 7ebc
000002d0: 24f5 2c3e cc18 093e 5415 07be 6a77 0cbe
000002e0: 9295 363e ec8b 933d 4c72 473e 4017 c23b
000002f0: cc3a ab3d c063 2c3e 847d fa3d 365d 2cbe
00000300: 530f 14be 8270 44be 9024 293c 0016 44ba
00000310: a888 26bd 903d 56bc 1eff 223e b8c3 a0bd
00000320: cc50 96bd 5c55 abbd 7025 633c 5e26 0d3e
00000330: b09a 93bc e1b9 edbd a806 dc3c 308f 893d
00000340: 1e82 bcbd e072 9bbc dcc6 e43d 8094 163d
00000350: 8fcc 57be 201d 583e 901e 173e e8a2 a83d
00000360: 668f 123e fe1f 9cbd 64a5 bf3d 1042 4dbe
00000370: fc6c dd3d 38d2 433e f272 b1bd 7876 7dbd
00000380: c01f 2e3e 8862 d13d 30e8 adbd 002e 09bc
00000390: 10cc 3f3d 6cc3 223e 1297 273e 784a 343d
000003a0: e837 80bd e655 a4bd 5b36 2abe a625 19be
000003b0: a47f 853d da53 32be 9897 423d 004b d23d
000003c0: d6cf 48be d010 ee3c a404 5dbd 44f2 923d
000003d0: 7e65 013e 4066 eabc b452 4bbe e45f 0e3e
000003e0: 8809 28bd 3846 b53c b0d7 bc3c 9c0c 23be
000003f0: 8ebf 19be 50f7 5abd 680a 39be a58e d1bd

conv1.0.bias f4 [22]
-0.21067002 0.09949368 -0.005117744 -0.07332577 -0.1441855 -0.15056217 0.14729515 -0.09527249
0.0001872927 -0.086882964 -0.013888806 0.080170006 -0.134742 0.17772397 -0.13017115 0.029113278
-0.068416744 -0.08647105 0.15919593 -0.09209181 0.10504967 -0.199507
00000000: e2b9 57be 58c3 cb3d c0b2 a7bb d22b 96bd
00000010: 5da5 13be f82c 1abe 8ad4 163e 391e c3bd
00000020: 0064 4439 b2ef b1bd e08d 63bc 2c30 a43d
00000030: cff9 09be 46fd 353e 964b 05be f87e ee3c
00000040: 141e 8cbd bc17 b1bd 4204 233e a29a bcbd
00000050: 4824 d73d 904b 4cbe

conv2.0.weight f4 [20, 1, 22, 25]
-0.018262688 0.02301713 0.018960863 0.0067229643 0.042114697 0.024384312 0.017955754 0.008942157
-0.018328605 -0.0014489852 0.006902851 -0.033341177 0.018747732 0.024750054 -0.029149454 0.014732774
0.0030778237 -0.03641342 0.003281884 0.023862809 -0.02374017 -0.025665436 0.01886309 0.039605044
0.03919804 -0.038655132 -0.04090044 -0.014859185 -0.027174432 0.04104364 0.014668349 0.009605836
0.023317426 0.028618023 0.013051372 0.0020318069 -0.03590704 -0.030639328 -0.03862488 -0.0090840645
-0.0036442578 0.012730397 0.017988816 0.0083405 -0.011903154 0.0034551658 0.034420088 0.022013105
0.038935438 0.03139531 -0.023306608 0.002118148 -0.04093697 0.010022346 -0.024154758 0.013828229
-0.017254952 -0.038545564 -0.00073047355 -0.01703062 -0.024940092 -0.03491602 -0.026897138 0.011255328
0.014231924 0.002433993 -0.0020118654 -0.024884356 -0.016254364 -0.012534205 0.013518389 0.01875278
-0.023424001 0.033815607 -1.7553568e-05 0.028434172 0.0029448047 0.029396623 0.04120095 -0.041578438
-0.03876667 -0.018790826 0.0007208809 0.0034854487 -0.005790055 -0.017319793 -0.022537353 -0.030592415
-0.014570383 -0.029683638 -0.0376334 0.032050267 -0.033172198 -0.018187916 0.036311693 0.007920768
0.006277345 -0.027876966 -0.025785286 0.020837225 -0.012569813 0.021009468 -0.006273605 -0.029463092
-0.0066341013 0.032788835 0.01716195 -0.015306015 0.020850979 0.02875255 -0.032897554 -0.011326507
-0.042298395 -0.033212718 0.012635861 -0.036816224 -0.012041068 -0.010031749 -0.042591613 -0.006476909
0.0073680654 0.0040819533 0.01302075 -0.031247612 0.016705815 0.029232457 -0.020526487 -0.00434421
0.010947641 0.02703105 0.03471058 -0.0030720904 0.0038552731 0.030817784 -0.0026174672 -0.034726672
0.036131702 -0.009591699 0.038678385 0.012421817 0.0079087205 0.03036739 0.033696175 0.0072361417
-0.042226214 -0.03339604 0.035266936 -0.013531581 0.025290914 -0.021444378 0.020615608 0.008268639
0.041909754 -0.038752668 -0.0012645796 -0.03455904 0.018841855 0.03756108 -0.027508462 0.034196615
-0.01954791 0.0053296573 -0.040812794 0.008694395 -0.038659763 -0.042099494 0.01470466 0.04052101
0.04022765 -0.040503096 0.026723959 -0.034665465 0.021520428 0.012257449 0.012496721 0.03589183
-0.025279816 0.035233147 -0.016508464 0.037231892 0.0026594587 -0.028815571 0.018330269 0.01385149
0.04133232 -0.010576203 0.0021803826 0.020291418 -0.0003398806 0.030660957 -0.01681343 -0.031980153
-0.012390435 -0.019310564 0.012551039 0.008733708 0.013209637 -0.011375248 -0.030338626 0.033370577
0.012213513 0.020954989 0.0036493577 0.011045102 0.013917789 -0.01586331 -0.031621743 -0.004456803
-0.023218524 -0.027524225 -0.020042418 0.01426553 0.0053996406 -0.03023861 -0.031697843 -0.0045578554
-0.0072970167 0.005060464 0.0054666735 0.026634395 -0.0037066005 0.004782371 -0.03939012 0.021521367
-0.008839309 0.006276652 0.034839176 0.0025219917 0.005537484 0.017843042 -0.003576748 0.020260409
-0.026984949 -0.038580112 0.034106918 0.015367739 0.009061214 0.038791597 -0.007458262 0.015911072
0.008867327 0.028278291 0.03853789 -0.009422939 -0.028591111 0.031014003 -0.027931264 -0.011112075
-0.02043493 0.03138654 0.005581185 0.03896127 -0.0024473928 -0.003639128 0.040308602 0.012304597
00000000: a29b 95bc 6c8e bc3c d053 9b3c 504c dc3b
00000010: 7680 2c3d 9cc1 c73c f217 933c 2082 123c
00000020: df25 96bc e0eb bdba 5031 e23b c290 08bd
00000030: d894 993c a0c0 ca3c d6ca eebc bc61 713c
00000040: 50b5 493b 3d26 15bd e014 573b f07b c33c
00000050: bf7a c2bc 5240 d2bc c486 9a3c e638 223d
00000060: 208e 203d d854 1ebd 3887 27bd f073 73bc
00000070: ea9c debc 601d 283d 8453 703c cc61 1d3c
00000080: 3004 bf3c 5870 ea3c 6cd5 553c 1028 053b
00000090: 4313 13bd 54ff fabc 1f35 1ebd 54d5 14bc
000000a0: 80d4 6ebb 2893 503c 485d 933c 98a6 083c
000000b0: 7205 43bc 1070 623b 14fc 0c3d d454 b43c
000000c0: c47a 1f3d 5e98 003d 80ed bebc a0d0 0a3b
000000d0: 86ad 27bd c434 243c 33e0 c5bc cc8f 623c
000000e0: 425a 8dbc f4e1 1dbd 407d 3fba cc83 8bbc
000000f0: 2a4f ccbc 1a04 0fbd 6357 dcbc 4468 383c
00000100: 042d 693c a083 1f3b 80d9 03bb 47da cbbc
00000110: df27 85bc 445c 4dbc 3c7c 5d3c 6e9f 993c
00000120: b1e3 bfbc 3c82 0a3d 0040 93b7 c8ee e83c
00000130: a0fd 403b 30d1 f03c 54c2 283d 274e 2abd
00000140: cdc9 1ebd 38ef 99bc 80f9 3c3a 206c 643b
00000150: 80ba bdbb 3de2 8dbc 41a0 b8bc f29c fabc
00000160: 9eb8 6ebc 1a2b f3bc 7b25 1abd 2447 033d
00000170: 92df 07bd d3fe 94bc 92bb 143d 1cc6 013c
00000180: 30b2 cd3b 3c5e e4bc aa3b d3bc d4b2 aa3c
00000190: 9ef1 4dbc 0c1c ac3c d092 cdbb 955c f1bc
000001a0: e062 d9bb 964d 063d 3897 8c3c 14c6 7abc
000001b0: accf aa3c 788a eb3c 96bf 06bd d092 39bc
000001c0: 1541 2dbd 0f0a 08bd a406 4f3c 9ccc 16bd
000001d0: e647 45bc 345c 24bc 8b74 2ebd 403c d4bb
000001e0: d06f f13b e8c1 853b fc54 553c fefa ffbc
000001f0: a2da 883c e878 ef3c 2a27 a8bc e059 8ebb
00000200: bc5d 333c 3870 dd3c ae2c 0e3d 2055 49bb
00000210: c0a8 7c3b 9475 fc3c d089 2bbb 8e3d 0ebd
00000220: d6fe 133d 8026 1dbc 3a6d 1e3d e084 4b3c
00000230: 9493 013c 08c5 f83c 0005 0a3d 281d ed3b
00000240: 65f5 2cbd 49ca 08bd 1074 103d 90b3 5dbc
00000250: e42e cf3c 1fac afbc 10e2 a83c 3079 073c
00000260: 90a9 2b3d 1ebb 1ebd 40c0 a5ba c88d 0dbd
00000270: 3c5a 9a3c a6d9 193d 6d59 e1bc c011 0c3d
00000280: f022 a0bc 68a4 ae3b 512b 27bd f072 0e3c
00000290: b359 1ebd 8570 2cbd d0eb 703c 5cf9 253d
000002a0: c0c5 243d 93e6 25bd 34ec da3c 60fd 0dbd
000002b0: 9c4b b03c 78d3 483c 0cbf 4c3c 5003 133d
000002c0: 9e17 cfbc a250 103d c23c 87bc 7880 183d
000002d0: 504a 2e3b a20e ecbc 5c29 963c 5cf1 623c
000002e0: 144c 293d d047 2dbc c0e4 0e3b 303a a63c
000002f0: 0032 b2b9 b02c fb3c 51bc 89bc 9ffd 02bd
00000300: 4001 4bbc 3031 9ebc e0a2 4d3c d417 0f3c
00000310: 3c6d 583c 405f 3abc b688 f8bc 96af 083d
00000320: 301b 483c cca9 ab3c 102a 6f3b 84f6 343c
00000330: 7007 643c c6f3 81bc cd85 01bd 600a 92bb
00000340: c634 bebc 7c7a e1bc ff2f a4bc f8b9 693c
00000350: 78ef b03b f6b6 f7bc 99d5 01bd 105a 95bb
00000360: d01b efbb 40d2 a53b c821 b33b 6030 da3c
00000370: 70ea 72bb 70b5 9c3b 8957 21bd 944d b03c
00000380: c0d2 10bc 60ac cd3b 86b3 0e3d 0048 253b
00000390: c873 b53b 922b 923c e067 6abb 28f9 a53c
000003a0: 8a0f ddbc 2e06 1ebd b2b3 0b3d f8c8 7b3c
000003b0: 7c75 143c f0e3 1e3d 7064 f4bb f057 823c
000003c0: 4448 113c e0a7 e73c e8d9 1d3d ac62 1abc
000003d0: e837 eabc 1411 fe3c 1bd0 e4bc 6c0f 36bc
000003e0: 2867 a7bc 2c8f 003d 60e2 b63b da95 1f3d
000003f0: 7064 20bb 707e 6ebb a21a 253d 3899 493c

conv2.0.bias f4 [20]
-0.0077961236 0.002714701 0.031424575 -0.020291632 -0.012339 -0.03121971 0.017643366 -0.023815421
0.020627715 -0.01002346 -0.025688656 0.031933606 -0.014153199 -0.018790461 -0.0044466853 0.013163868
-0.023907928 0.029938638 0.008698255 -0.020424174
00000000: a076 ffbb 20e9 313b 0eb7 003d a33a a6bc
00000010: 8429 4abc 7ac0 ffbc d288 903c 8f18 c3bc
00000020: 74fb a83c 7039 24bc 0471 d2bc d0cc 023d
00000030: d2e2 67bc 74ee 99bc 80b5 91bb 44ad 573c
00000040: 8fda c3bc e041 f53c 2083 0e3c 9950 a7bc

conv2.1.weight f4 [20]
1.0 1.0 1.0 1.0 1.0 1.0 1.0 1.0
1.0 1.0 1.0 1.0 1.0 1.0 1.0 1.0
1.0 1.0 1.0 1.0
00000000: 0000 803f 0000 803f 0000 803f 0000 803f
00000010: 0000 803f 0000 803f 0000 803f 0000 803f
00000020: 0000 803f 0000 803f 0000 803f 0000 803f
00000030: 0000 803f 0000 803f 0000 803f 0000 803f
00000040: 0000 803f 0000 803f 0000 803f 0000 803f

conv2.1.bias f4 [20]
0.0 0.0 0.0 0.0 0.0 0.0 0.0 0.0
0.0 0.0 0.0 0.0 0.0 0.0 0.0 0.0
0.0 0.0 0.0 0.0
00000000: 0000 0000 0000 0000 0000 0000 0000 0000
00000010: 0000 0000 0000 0000 0000 0000 0000 0000
00000020: 0000 0000 0000 0000 0000 0000 0000 0000
00000030: 0000 0000 0000 0000 0000 0000 0000 0000
00000040: 0000 0000 0000 0000 0000 0000 0000 0000

conv2.1.running_mean f4 [20]
0.0954 0.031250022 0.15116945 0.03487686 -0.09444328 -0.027686194 0.044688705 -0.06972116
0.0060639717 -0.12307016 -0.07828484 0.102845944 0.033570446 -0.07312567 0.04617138 -0.026940769
-0.012049336 0.006818445 0.041530527 0.030327778
00000000: 1361 c33d 0600 003d 2acc 1a3e 0adb 0e3d
00000010: 7a6b c1bd 28ce e2bc 810b 373d f8c9 8ebd
00000020: 48b4 c63b 350c fcbd cd53 a0bd e5a0 d23d
00000030: 2a81 093d e9c2 95bd 331e 3d3d e3b2 dcbc
00000040: 946a 45bc 436d df3b ea1b 2a3d f671 f83c

conv2.1.running_var f4 [20]
0.9002924 0.90019864 0.90050924 0.90007937 0.90021205 0.9001797 0.9002348 0.90016437
0.9000435 0.90044343 0.9004216 0.9004047 0.9000925 0.90027106 0.90021205 0.9000444
0.90002954 0.900078 0.9000505 0.90017503
00000000: 9079 663f 6b73 663f c687 663f 9a6b 663f
00000010: 4c74 663f 2d72 663f ca75 663f 2c71 663f
00000020: 4069 663f 7683 663f 0882 663f ec80 663f
00000030: 766c 663f 2a78 663f 4c74 663f 4f69 663f
00000040: 5668 663f 836b 663f b669 663f df71 663f

classifier.weight f4 [4, 1460]
0.0027288087 -1.873821e-05 -0.002881134 -0.007505607 -0.0077934004 -0.024018425 0.02389339 0.012312297
0.019777667 0.0069245324 0.025229163 0.025914237 0.0040458553 0.006834455 0.02189707 -0.002462376
0.0017248932 0.019720301 0.019972961 0.004801208 -0.014123731 0.001993226 0.0069495775 0.020183783
-0.014723706 -0.01687704 0.019220144 -0.022505878 0.021967515 -0.009484846 -0.023810465 0.0076813847
-0.020695876 -0.0029557012 0.00952721 0.0035755858 -0.01575228 -0.01921994 0.012915172 0.02371309
-0.017395696 -0.00011371821 0.007221315 0.0049591195 0.0012127385 0.025575675 0.02345964 0.025010563
0.00793086 0.021815546 0.009766549 0.0068445504 -0.008886065 -0.017771535 -0.01851932 0.008604459
-0.0025692936 0.002148291 0.000375038 0.023401942 -0.0035254713 -0.007637283 0.024559159 0.000785172
0.021130692 -0.014235519 -0.021095434 0.01974101 -0.004797509 0.015613053 -0.015912896 0.018397145
0.014142863 0.006582685 -0.015107876 -0.0025474634 0.0039809383 0.0014423002 -0.011127792 0.016568765
-0.0038519874 0.017193675 0.004083706 0.012925159 0.022335868 -0.01876842 -0.021333536 0.02180672
0.0048361793 -0.019943558 0.024116468 0.017930713 0.0066255443 0.023588065 0.01768703 0.023322284
0.014832459 0.024888687 0.022339124 -0.016188286 0.002614282 -0.025061106 -0.023151906 -0.012489694
-0.0008387901 -0.02341889 0.00091435015 0.021839514 0.008342702 0.007916294 0.010156587 -0.021507628
-0.020060368 -0.017324306 0.017375022 -0.004555691 0.022886403 0.022163436 -0.0037930012 0.00015090033
-0.010689747 0.017511513 -0.007853691 0.015078735 0.023037553 0.012220502 -0.01160488 0.011233557
-0.0072336774 0.018099617 0.0017208215 0.007726632 0.0016674139 0.0030658115 0.0037538 0.0012870915
0.018393472 -0.009577954 -0.00786618 -0.018854287 0.017583359 -0.010519905 0.014739979 0.019195072
0.018723767 0.024482526 0.0064131096 -0.0184987 0.011579029 -0.013087205 0.014645103 -0.015758865
-0.0045240168 -0.007680243 -0.0045037996 0.0017646961 -0.018790271 0.0029015765 0.004818745 0.008906841
0.022090334 0.009206638 -0.024710376 0.012462992 0.0005407296 -0.017802205 0.004796289 -0.0039161853
-0.017223429 -0.017285328 0.016852275 -0.014982663 0.0008378364 -0.0018478222 0.022703357 0.012445383
0.01054658 -0.012372341 -0.001451252 0.012020517 0.022990186 0.02326338 0.017569885 0.0077757947
-0.024603004 0.025814556 0.020657126 0.0016930737 0.0005493127 -0.007414229 0.0195589 0.023132086
0.017432652 0.012335725 0.021968395 -0.0038913507 0.021125548 -0.01749238 0.0051588975 0.023834687
0.0041470043 0.0098590255 0.018864796 0.006703224 -2.4663284e-05 0.025349852 0.009177845 0.00069461577
-0.017100442 0.019894287 -0.02020487 -0.020340808 -0.0033890046 0.0117550865 0.021792661 0.0058030523
-0.023259422 -0.024209637 -0.013109028 0.019488376 -0.017989382 -0.010818091 -0.01929013 0.006797418
-0.0097157415 0.0016700532 -0.009266462 -0.010908617 0.0029346552 -0.025807861 0.0016879737 -0.012088897
0.024242815 -0.01243706 -0.017446347 0.018691272 0.007982038 0.010314278 -0.010560751 -0.0019060597
0.006005693 0.017799858 0.009714916 -0.015225303 -0.009119343 0.0025002416 -0.0015032738 0.009722199
-0.018867392 0.023262683 -0.013414493 0.015349444 0.012352165 -0.0026030242 0.01971697 0.026007548
00000000: d0d5 323b 0030 9db7 68d1 3cbb 98f1 f5bb
00000010: c85f ffbb 4ac2 c4bc 12bc c33c 84b9 493c
00000020: c604 a23c 30e7 e23b 64ad ce3c 184a d43c
00000030: 1893 843b 90f3 df3b 7c61 b33c d05f 21bb
00000040: d015 e23a 788c a13c 569e a33c 7453 9d3b
00000050: 3967 67bc c8a0 023b 48b9 e33b 7658 a53c
00000060: b33b 71bc b841 8abc 9073 9d3c 3f5e b8bc
00000070: 38f5 b33c 5466 1bbc 2a0e c3bc 20b4 fb3b
00000080: 668a a9bc 70b4 41bb 0418 1c3c 6054 6a3b
00000090: ed0a 81bc 2373 9dbc 289a 533c f441 c23c
000000a0: 6b81 8ebc 007c eeb8 c8a0 ec3b 1c80 a23b
000000b0: c0f4 9e3a 1484 d13c 6e2e c03c f4e2 cc3c
000000c0: 70f0 013c 84b6 b23c e003 203c 4048 e03b
000000d0: dc96 11bc 9c95 91bc d4b5 97bc b8f9 0c3c
000000e0: 9861 28bb 58ca 0c3b c0a0 c439 6eb5 bf3c
000000f0: 980b 67bb 2c42 fabb 4a30 c93c 00d4 4d3a
00000100: 461a ad3c 183c 69bc 55d0 acbc e6b7 a13c
00000110: 6c34 9dbb e4cd 7f3c c35b 82bc 9cb5 963c
00000120: 78b7 673c 90b3 d73b 0687 77bc 58f3 26bb
00000130: 8872 823b 900b bd3a 5851 36bc 38bb 873c
00000140: a071 7cbb c0d9 8c3c 9cd0 853b 0cc4 533c
00000150: b6f9 b63c 3bc0 99bc abc3 aebc 02a4 b23c
00000160: d078 9e3b ac60 a3bc e68f c53c 6ee3 923c
00000170: 181b d93b c23b c13c 64e4 903c 600e bf3c
00000180: d803 733c 5ce3 cb3c 8a00 b73c 4c9d 84bc
00000190: 6054 2b3b f34c cdbc 11a9 bdbc 93a1 4cbc
000001a0: 40e2 5bba f9d8 bfbc 00b1 6f3a c8e8 b23c
000001b0: d4af 083c 58b3 013c d067 263c c430 b0bc
000001c0: a455 a4bc b4eb 8dbc 1056 8e3c e847 95bb
000001d0: 447c bb3c 1890 b53c 0094 78bb 003b 1e39
000001e0: 0c24 2fbc 4e74 8f3c c4ac 00bc cc0c 773c
000001f0: 40b9 bc3c 8038 483c 6522 3ebc f40c 383c
00000200: 7c08 edbb a645 943c 308d e13a b02f fd3b
00000210: 208d da3a c8eb 483b 5002 763b a0b3 a83a
00000220: e8ad 963c daec 1cbc 26e1 00bc 4e74 9abc
00000230: fa0a 903c ae5b 2cbc f47f 713c fc3e 9d3c
00000240: 9662 993c 948f c83c 1025 d23b 968a 97bc
00000250: f8b5 3d3c b76b 56bc 04f2 6f3c bc18 81bc
00000260: 343e 94bb 8caa fbbb 9c94 93bb 604d e73a
00000270: 0eee 99bc 6028 3e3b 90e6 9d3b 00ee 113c
00000280: caf6 b43c 70d7 163c 6a6d cabc 9431 4c3c
00000290: c0bf 0d3a eed5 91bc 302a 9d3b 5853 80bb
000002a0: 2618 8dbc f699 8dbc c80d 8a3c d879 75bc
000002b0: 40a2 5b3a a032 f2ba 64fc b93c b8e7 4b3c
000002c0: 90cb 2c3c 5cb5 4abc f037 beba b4f1 443c
000002d0: ea55 bc3c d892 be3c b8ee 8f3c 18cc fe3b
000002e0: 3d8c c9bc 0c79 d33c 2239 a93c 20ea dd3a
000002f0: c0ff 0f3a 10f3 f2bb fc39 a03c 807f bd3c
00000300: ecce 8e3c c81b 4a3c 10f7 b33c 0806 7fbb
00000310: 7c0f ad3c 2e4c 8fbc f80b a93b f640 c33c
00000320: 98e3 873b c087 213c 588a 9a3c b8a6 db3b
00000330: 00e4 ceb7 7eaa cf3c ac5e 163c e016 363a
00000340: 3a16 8cbc 58f9 a23c af84 a5bc c4a1 a6bc
00000350: 101a 5ebb 6898 403c 8686 b23c 8827 be3b
00000360: 8b8a bebc 4a53 c6bc 40c7 56bc 16a6 9f3c
00000370: 785e 93bc 5d3e 31bc 5606 9ebc e0bc de3b
00000380: c62e 1fbc b0e5 da3a 5cd2 17bc 0eba 32bc
00000390: 5853 403b 026b d3bc 003f dd3a 8210 46bc
000003a0: de98 c63c cfc4 4bbc a4eb 8ebc 701e 993c
000003b0: 18c7 023c 38fd 283c 0007 2dbc c0d4 f9ba
000003c0: 68cb c43b 02d1 913c 502b 1f3c 8d73 79bc
000003d0: 4c69 15bc 18db 233b 8009 c5ba dc49 1f3c
000003e0: ca8f 9abc 6291 be3c 76c8 5bbc 3c7c 7b3c
000003f0: bc60 4a3c 8097 2abb 7c85 a13c c80d d53c

classifier.bias f4 [4]
-0.02593917 -0.025940958 -0.01976153 -0.004234135
00000000: 627e d4bc 2282 d4bc efe2 a1bc 80be 8abb
